imv_tensor_lstm_nasdaq.pt (torch, 155946 bytes, 16 tensors)

U_j f4 [32, 1, 16]
00000000: d0c7 c93e 79f6 b63e 239a d4be e2a2 d6be
00000010: cbba c5be d0b0 ca3e 3b37 dd3e d73f e7be
00000020: bf5a bebe 60b1 553e 6fc2 cfbe b525 653e
00000030: 7f2f a23e 1641 d1be 078f 9a3e 4c41 b3be
00000040: 9982 653d 3d19 d03d f16a d7bd f935 18be
00000050: 3e25 bdbd 5d32 9f3d a05c df3c c2b7 a2bd
00000060: 4a7e 9bbd 6f1b af3e 4485 133c ec53 43be
00000070: 473d 063e 792e b7bc 3563 69bd 2da8 9cbd
00000080: 42e1 f43e 3af0 f73e 8f5d cbbe 9c5c c5be
00000090: 9d8e ecbe 12ae eb3e 2d3e c43e f6e7 06bf
000000a0: 1df6 ffbe a442 b93e fb72 c7be f854 d93e
000000b0: 1a07 4b3e 94ec e9be fddf 913e 3e0b 8ebe
000000c0: e06f d23e 4bdc 9d3e 0e91 b8be 2c11 8ebe
000000d0: 3ac1 9ebe 41de c93e ae85 d23e ba11 cabe
000000e0: 3ee3 b9be bc60 76be e979 b1be 0098 c33e
000000f0: bcd9 993e 7916 86be d4d6 bf3e c97c 8ebe
00000100: 9996 eb3e 8f6c b23e 730a f2be 13a6 efbe
00000110: ef55 dfbe bc8c e33e d5e3 fe3e a580 e5be
00000120: 3691 d1be a716 fd3d 18a5 d7be f7d8 df3e
00000130: 4880 ca3e 9b8d 57be 9ec4 b83e f8f9 bbbe
00000140: e7a7 913e 864d 903e e25e a8be efb5 96be
00000150: 08d6 8abe c372 8f3e 7826 853e 64d8 a0be
00000160: 7660 94be a39c 853e 2a41 39be c9f5 163e
00000170: 6133 8d3e 820e 50be f86f 223e 36be 9abe
00000180: 196a 3e3e d480 463e 83cd 64be fda7 4bbe
00000190: 9dab 3dbe 7461 173e ecb0 223e de64 3abe
000001a0: 7fc8 67be a57c 2b3e bda3 0ebe 8e09 ec3d
000001b0: 0b02 573e 64bc f4bd e98b 193d 47da 41be
000001c0: e1d2 963e 3d8e 8f3e 6bd0 adbe 670e 83be
000001d0: c5ae 8fbe 5b2f 9d3e 5e89 983e 8a46 a6be
000001e0: 7f57 a2be 2399 bebd 017c 71be 7cea 663e
000001f0: 90a9 893e c9cb 72be aeb7 8c3e e393 9abe
00000200: 0422 bb3e c0d7 8d3e 29b3 bfbe 3d49 95be
00000210: 9c96 97be b505 be3e 1a3e 883e 692d bebe
00000220: ec3b 99be ef01 783d e30d 65be cb2d ea3b
00000230: 9217 6f3e f5bf 9abe bbd1 5e3e f32a bbbe
00000240: f711 4b3e 522b 773e 7bd5 87be 3046 7dbe
00000250: 294d 46be 8cba 5d3e 22e4 133e 72a4 77be
00000260: 23a9 80be 45bb 9c3d d103 06be f8e8 fa3d
00000270: 3fce 3c3e 5241 02be 1bc8 ef3c a9fb 54be
00000280: 6be3 df3e 4210 693e 39a5 01bf dc29 cfbe
00000290: e370 d8be a9cc e23e 95b0 f63e 61e5 f6be
000002a0: e13d d2be 791f ccbe 2078 f2be b5ad c03e
000002b0: f94f 023e 5875 b7be 79a2 bf3e a209 e3be
000002c0: f21a 8a3e 9f17 a43e 0834 acbe b263 81be
000002d0: d9a7 9fbe 1519 a03e 470b 823e de1c 98be
000002e0: c45e 95be e34b eabd a1fe 30be bc1b 423e
000002f0: d3f4 5e3e 3e99 5cbe 5fe8 4e3e cd35 91be
00000300: 1361 57bc 9314 9738 5963 81bc 553a 67bd
00000310: f2da 203b a318 a0bd f9dc 9cbd 22a7 f33c
00000320: 56f9 bb3c 65ec e03c 2e85 893d a34c 1bbe
00000330: ed46 7a3c b069 823d cba0 c2bd 37ae fe3c
00000340: 6204 9b3e 92b0 893e 34b7 a7be b3c3 99be
00000350: 9ffb 85be c62b 973e 1af7 963e f332 a1be
00000360: 6f7e 9dbe 6d59 ecbd 3c06 fbbc d12d a0bb
00000370: e05b 4f3e abf9 68be 2e46 903e 0819 a2be
00000380: ef8d 8c3e e191 953e 20bd 9fbe f3ca 84be
00000390: 7446 8fbe 97c5 9d3e c240 9a3e 5cc3 9fbe
000003a0: 81ab a6be ba1f 603e 6e19 90be 7bf1 3c3e
000003b0: c21b 823e d18b 67be f9fb 813e 871f 93be
000003c0: a2be 9b3e 39a7 9e3e 16db a6be 9ccd 97be
000003d0: 4fcb 8dbe 7441 a23e 9f5d a83e ae4a a8be
000003e0: c759 88be 92e0 b93d 7fd7 85be 959a 093d
000003f0: 509c 583e 5869 a5be fa52 e23d d180 7abe
0.39410257 0.3573492 -0.41523847 -0.41921145 -0.38619074 0.39588022 0.432062 -0.45165893
-0.3717861 0.20868444 -0.4057803 0.22377665 0.31676862 -0.4086997 0.30187246 -0.35010755
0.05603275 0.10161064 -0.10518444 -0.14864339 -0.09235619 0.07773278 0.027265847 -0.07945205
-0.07592447 0.34200618 0.009003941 -0.19074982 0.13109313 -0.022361027 -0.056979377 -0.076492645
0.47828108 0.48425466 -0.39719817 -0.38547218 -0.46202555 0.46031243 0.38328686 -0.52697694
-0.49992457 0.36183655 -0.3895491 0.4244764 0.19826928 -0.45688307 0.28491202 -0.27742952
0.4110098 0.30832133 -0.36048168 -0.27747476 -0.31006795 0.3942738 0.41117615 -0.3946665
-0.36306185 -0.24060339 -0.34663323 0.38201904 0.3004893 -0.2618902 0.37468588 -0.2782958
0.46013334 0.3484845 -0.47273597 -0.46806392 -0.4362025 0.4444331 0.49783197 -0.4482471
-0.409311 0.12357836 -0.42118144 0.4372022 0.39550996 -0.21050112 0.36087507 -0.3671415
0.28448412 0.28184146 -0.3288489 -0.2943568 -0.27116418 0.28017244 0.26005912 -0.31415093
-0.28979844 0.26096067 -0.18091264 0.14742197 0.27578261 -0.20318034 0.15863025 -0.30223244
0.1859516 0.19385082 -0.22344021 -0.19888301 -0.18522497 0.14783269 0.15887803 -0.1820254
-0.22635077 0.16746767 -0.13929649 0.1152526 0.20996873 -0.11949995 0.037486944 -0.18930922
0.29457763 0.28038207 -0.33948073 -0.25596926 -0.28063026 0.30700192 0.29792303 -0.32475692
-0.3170738 -0.09306552 -0.2358246 0.22550386 0.26887178 -0.2371055 0.27483886 -0.30190954
0.3654939 0.27703667 -0.37441376 -0.2915744 -0.29607093 0.3711373 0.2660988 -0.3714402
-0.2992853 0.06054872 -0.22368579 0.007146572 0.23348835 -0.30224577 0.21759693 -0.36556205
0.19831072 0.24137619 -0.2653006 -0.24733806 -0.19365372 0.21653193 0.14442495 -0.24183825
-0.2512904 0.07652906 -0.13087393 0.122514665 0.18438052 -0.1272023 0.029270222 -0.20799126
0.43728194 0.22760108 -0.50642735 -0.40461624 -0.42273626 0.44296768 0.48181596 -0.48221877
-0.41062835 -0.39867762 -0.47357273 0.37632528 0.1272582 -0.35831714 0.37428644 -0.44343287
0.26973683 0.3204927 -0.33633447 -0.25271374 -0.31182745 0.31269136 0.2539923 -0.29709524
-0.29173863 -0.114402555 -0.17284633 0.18955892 0.2177308 -0.21542832 0.2020583 -0.2836136
-0.013145703 7.204073e-05 -0.015794443 -0.056452114 0.0024544564 -0.07817199 -0.07659335 0.029742781
0.022946041 0.027456472 0.06714855 -0.15165953 0.015275699 0.063678145 -0.09503325 0.031088931
0.3027678 0.26892525 -0.3275696 -0.3003212 -0.26168534 0.29525584 0.294854 -0.31484184
-0.30760524 -0.11540494 -0.030642621 -0.0048882742 0.20249891 -0.22751491 0.28178543 -0.31659722
0.27452037 0.2921286 -0.31198978 -0.25936088 -0.2798344 0.30814812 0.3012753 -0.31203735
-0.32552722 0.21887103 -0.281444 0.18451492 0.25411803 -0.2261193 0.25387552 -0.2873499
0.3041888 0.30986956 -0.32589024 -0.29649055 -0.27694175 0.31690562 0.32883927 -0.32869476
-0.26630995 0.090760365 -0.26140973 0.033594687 0.21153378 -0.32306933 0.11050983 -0.24463202

U_i f4 [32, 1, 16]
00000000: aa47 893e be31 953e b977 b23e 0fda c53e
00000010: 8e45 943e 1462 8c3e 842e c23e d61b d33e
00000020: 817b 853e b314 163d 87b3 b73e 2f2b 08bf
00000030: 2f04 393e be38 ca3e a598 243e 73a7 973e
00000040: f3b0 25ba 1a6e f9bb a7d0 45bc 34c7 e7bd
00000050: 8982 05bd 94b7 4abe f4b7 c73b bf5f 903a
00000060: 5052 2fb9 f006 0c3f 6f36 3cbd ca85 323c
00000070: 4d4d e2bd fbb9 99bc 15f6 38be 44f4 da3c
00000080: aa8e b33e 87d5 a83e 8ce1 9c3e 3bea 843e
00000090: 9040 ba3e 59e9 b63e 7dc4 5d3e d561 ec3e
000000a0: d231 d03e 9eea 6e3e cc47 243e 9126 19bf
000000b0: cd50 a4bb 3107 b43e a446 e43d 5637 fe3d
000000c0: 3632 953e b0d0 2c3e 5b0d 533e 4e62 3a3e
000000d0: 8767 383e 20d0 a63e e4fe 9b3e cfb4 9c3e
000000e0: f211 883e 5be2 ebbe 30ec 7c3e 1e85 51bf
000000f0: 7a59 803e 3a8e f23d cbf0 853e 4e1c 373e
00000100: 50af bc3e 3ec3 993e ad58 f13e 1370 ad3e
00000110: e709 c73e a62d 943e 9c62 b03e 5c84 d53e
00000120: af8e ca3e da69 2bbd 3b66 c23e 9164 37bf
00000130: d7aa bc3e ae9b d43d f1c2 763e e5c2 a63e
00000140: 0056 453e fb67 4a3e 5c15 993e fbf8 823e
00000150: abeb 2f3e 522f 7a3e da31 ed3d f860 943e
00000160: 0096 993e e8cb 843e 47b1 c03d efc2 ee3d
00000170: 64fe 2d3e afe0 583d 3fc4 423d e9c4 7c3e
00000180: c17f 1f3e 7a46 8e3d d170 cf3d bafd 4cbd
00000190: dad6 a3bc 1dfe 9b3d ff7b f73d 9183 a93d
000001a0: 3990 323e 43db 92bd 990f 063e b0b2 ab3d
000001b0: 6805 703d 0b09 933d c90e e0bd 69b9 e63b
000001c0: 7346 663e 4a60 793e 7788 bc3e 97b6 263e
000001d0: a5ff 663e 653d b03e 3095 823e 09e2 a33e
000001e0: 3d41 ae3e ea6e 7abe 6ed5 573e 29eb 483e
000001f0: e401 613e 7aee 3f3e d166 903e d1ed 7b3e
00000200: 38fe cd3e 64f6 683e 3814 cc3e 2fb3 ae3e
00000210: f95b 443e df13 c93e d8d2 303e 1b34 d13e
00000220: 7bdb 723e 23ea 7ebe ce93 3a3e 33f3 a3be
00000230: eef3 933d da2d a73e c889 e13d aa75 c63e
00000240: 7063 133e c0ce 393e 930d 173e 9fb3 173e
00000250: e274 3bbd f17c 2f3e 8c09 94bc c5b0 503e
00000260: a245 4c3e 281d 16be e251 ee3a ab79 a5bc
00000270: 4527 cbbc 7d05 e3bd 6ccf 21be eefa c33c
00000280: 4ed8 b93e d9a3 c43d 85a4 f63e 292e 9f3e
00000290: e8a5 983e 1a03 d63e a912 c23e 71e2 bf3e
000002a0: b22c ba3e e2aa acbe a07e b83e db80 733e
000002b0: 8150 aa3d 03f5 983e 8b19 3a3e 43ad b03e
000002c0: 4e1f 763e b5f8 6f3e 22cc 893e 6938 0d3e
000002d0: ada4 883e 9a11 8f3e 8c85 0d3e 3430 833e
000002e0: b008 513e 690d abbe e11f 303e cc93 263e
000002f0: 9b3c 74bb da72 153e b451 e43d 5c8b 343e
00000300: 8c66 16be 86ae a8bd ae80 c7bd a39e 89be
00000310: a2b8 66be ffeb e0bd 74ac e8bd 6445 b3bd
00000320: 4247 3dbd efc8 05be e92a e2bd 4593 0abe
00000330: 8e7f 41bd e536 8abd a1c3 8bbe 339b 5abd
00000340: eec4 933e b6bc 223e 5ad1 a63e 8efc 943e
00000350: b335 503e 7e60 9a3e a1ae 8b3e f3d8 aa3e
00000360: 9d1d 693e dbff 9cbe a7af 80be 8aa2 34be
00000370: 4e4d b53b af41 143e 8bd7 873e 3757 b03e
00000380: 3cbb 3a3e addc 1d3e ad36 8f3e c2b5 363e
00000390: 1bff 813e b740 843e b983 843e cab0 923e
000003a0: 0f43 a83e 23c9 733e 1b7f 853e 9508 013e
000003b0: 0dd1 293e 9c1b 153e 42ea 5b3e 442e 4c3e
000003c0: 1fb9 983e 28eb 813e adf0 913e a928 943e
000003d0: 34d2 923e 07f1 ab3e ae65 c33e b655 b43e
000003e0: a4a3 4e3e 0b75 253d 2e0b 823e 60a2 e5be
000003f0: acc5 bb3d 6e3d ac3e 4582 09be fa62 433e
0.26812488 0.29139513 0.34856966 0.38642928 0.28959316 0.27418578 0.37926114 0.41232175
0.26070789 0.036640834 0.35879156 -0.5319089 0.18068002 0.39496416 0.16073854 0.2961994
-0.0006320618 -0.007612002 -0.012073672 -0.11317292 -0.03259519 -0.19796592 0.006094927 0.0011014863
-0.00016719964 0.54698086 -0.04595035 0.010896156 -0.110499 -0.01876544 -0.18062623 0.026727803
0.35069782 0.32975408 0.3064083 0.25959954 0.36377382 0.35724905 0.21656986 0.4616839
0.4066301 0.23331687 0.16043013 -0.5982447 -0.005014515 0.35161737 0.11146286 0.12412898
0.2913987 0.16876483 0.20610563 0.18201563 0.18008243 0.32580662 0.30467904 0.30606696
0.2657619 -0.46071133 0.24699473 -0.81843746 0.25068265 0.11843534 0.26160273 0.17881891
0.36852503 0.3003177 0.47137967 0.33874568 0.38874742 0.28941077 0.34450233 0.41702545
0.39561984 -0.041848995 0.3796862 -0.7163783 0.3684909 0.10381256 0.24097802 0.32570568
0.19271088 0.19766228 0.29899108 0.25580582 0.17179744 0.24432114 0.11581774 0.2898023
0.29997253 0.25936818 0.09408813 0.116582744 0.16991574 0.05294865 0.047550436 0.2468449
0.15576078 0.06947036 0.1012894 -0.05004666 -0.01999991 0.07616828 0.12084197 0.082770474
0.17437829 -0.07170727 0.13091888 0.08383691 0.058598906 0.07179459 -0.1094032 0.0070411456
0.22487812 0.24353138 0.36822864 0.1628059 0.22558458 0.3442184 0.25504446 0.3200839
0.34034148 -0.24456373 0.2107751 0.19620956 0.21973377 0.18743315 0.28203443 0.24602439
0.40233016 0.2275024 0.39859176 0.3412108 0.1917571 0.39272973 0.1726793 0.40860066
0.23716538 -0.24894004 0.18220446 -0.32021484 0.0722426 0.3265217 0.11012608 0.38761646
0.14393401 0.18145275 0.14751272 0.14814614 -0.045765765 0.17137505 -0.018070959 0.20379932
0.19948438 -0.1465956 0.0018182362 -0.020199617 -0.024798999 -0.11085031 -0.15801781 0.023923364
0.3629784 0.09601564 0.48172393 0.31089905 0.29814076 0.4179924 0.37904862 0.3747745
0.36362225 -0.33724123 0.36034107 0.23779623 0.08316136 0.2987443 0.18173806 0.34507188
0.2403538 0.23434718 0.26913553 0.1379105 0.26688138 0.27943116 0.13820475 0.25622714
0.2041347 -0.3340867 0.17199661 0.16267318 -0.003726757 0.14594594 0.11148396 0.17631286
-0.14687556 -0.08236413 -0.097413406 -0.26878843 -0.2253137 -0.10982513 -0.11361018 -0.087534696
-0.046210535 -0.13064931 -0.11043341 -0.13532741 -0.047240786 -0.067487516 -0.2729769 -0.053370666
0.28861183 0.158923 0.32581598 0.29098934 0.20332985 0.30151743 0.2728167 0.33368644
0.22765203 -0.30663952 -0.25134012 -0.17640129 0.005532897 0.14478181 0.26531634 0.3444154
0.18235487 0.15416212 0.27971402 0.17842773 0.25389943 0.25830624 0.25881746 0.28650504
0.32863662 0.23807196 0.26073536 0.1260093 0.16583653 0.14561313 0.21476081 0.19939524
0.29828736 0.25374722 0.28503934 0.2893727 0.28675997 0.33582327 0.38163513 0.35221642
0.20179611 0.040394824 0.25399154 -0.44850445 0.09168562 0.33640617 -0.134286 0.19080725

U_f f4 [32, 1, 16]
00000000: 912b be3e f26e b43e e562 bb3e b1e2 eb3e
00000010: f16d ae3e 9204 a43e e431 df3e 079d e63e
00000020: 79af bb3e 0aa5 113e c9b8 df3e 92fe f6be
00000030: 96ba 2d3e dba0 d63e 4871 843e 8faa a03e
00000040: 5012 1c3b e8f9 ccbb 8716 4c3d bdcd f9bd
00000050: 4125 1eba 4726 43be cbcd 0bbb 0f91 cd3c
00000060: 8e1e 06bc 4208 813e 4bc0 7abc 66d8 20bd
00000070: 907d 58bd baf3 953b 266a e0bd f79e 263d
00000080: eff9 e63e c821 d83e 30f4 d73e 3205 913e
00000090: 5d1b e53e bfab d03e 01fb a13e fbc0 f63e
000000a0: 6a2c f43e 275d 983e ebcc 813e fcc4 1dbf
000000b0: b4f7 763d e1de c93e f2ee 8b3e d6ab 0f3e
000000c0: addc af3e 7726 6b3e e5af 6d3e a9c8 4e3e
000000d0: a3a4 613e 2b8c c03e cff5 a73e 1759 ae3e
000000e0: bf12 a23e ba25 0abf c5c0 8a3e 0443 31bf
000000f0: cfe0 a73e ecd5 003e 3300 993e bc12 373e
00000100: 1cbe e43e 6aff ad3e 7da5 ff3e c1db df3e
00000110: 6af9 e13e e28c d73e 03ac ea3e a545 d73e
00000120: b0de c53e 3e66 503c f17f dd3e 85c2 27bf
00000130: 825d d73e a621 2c3e 8d0c b83e a23c c33e
00000140: 605f 0e3e 5b0d 1c3e 852a 983e 3783 8c3e
00000150: 5a51 603e 0c1c 3c3e 7d43 383e b923 9c3e
00000160: 4804 883e 5f9b 733e 0f8b 173e 50bf 4a3e
00000170: 2acc 4c3e 757f f03d 5a03 313e 011c 693e
00000180: 5af1 2f3e 5177 963c f6dd 9b3d b26b a9bd
00000190: 1293 a3bc e145 b93d b3ee 083e c7b4 683d
000001a0: 5115 3e3e da8d dc3c 6b4b 073e 6309 da3d
000001b0: 8411 703d 65c3 9b3d 77ad 55bd 8cbc 78bc
000001c0: ce93 883e 202c 943e 3c47 d13e df06 493e
000001d0: 0596 8b3e d735 c13e de74 853e 3f28 ab3e
000001e0: 6177 c33e f58e b8be cb20 6e3e 9a81 7a3e
000001f0: ed24 863e 6488 603e 18eb 9b3e cceb 903e
00000200: 5813 c93e 1225 963e d8f2 dd3e e9b7 be3e
00000210: b456 883e 6c71 e33e 1f16 953e 3bad de3e
00000220: fd99 753e 4603 71bd b2e2 473e 93f7 ccbe
00000230: 43c1 023e 43b3 b93e cc12 6d3e 8666 d63e
00000240: 4e2d 133e d3c4 653e 00cf 133e 6974 513e
00000250: e028 9fbd 05c3 273e f86a 093d 63f4 313e
00000260: 8bf6 4c3e be6d 2dbd 965a 063d 68d6 41bb
00000270: 7709 8ebc c2a6 a0bd 7f4a e6bd 519b f83c
00000280: 6442 d43e ebda 013e 92ed 023f e909 ad3e
00000290: f602 b83e 6399 eb3e 3caa f03e 1c8d dd3e
000002a0: ae06 d53e c6f2 65be f6e8 d13e 8736 9a3e
000002b0: fd5d 373e d7a9 9e3e 02d3 8a3e 4c4f dd3e
000002c0: 7eae 893e f922 8c3e 37b1 9b3e 27ec 483e
000002d0: 0c83 a03e 895e 903e 4db1 513e a68f 7f3e
000002e0: c6a1 3f3e 6912 23be 92d8 213e 33b7 423e
000002f0: 8054 ec3c 1ced 333e 6603 293e e2ad 1a3e
00000300: 575f 1fbe 9401 91bd d96a babd 4022 8fbe
00000310: 1024 80be bc62 debd 8331 0fbe ce9d adbd
00000320: d252 9fbd 0e90 54bd 65cf afbd dc48 8dbe
00000330: 2ed9 62bd 7ec5 a7bd f79e 73be b1c0 2cbd
00000340: a420 a23e ae69 0d3e 8557 a63e 597e a13e
00000350: e3b9 693e f495 aa3e 67ea 9e3e 9378 a43e
00000360: bd49 673e bde6 b7be ec7e f33c c4c5 6ebe
00000370: 4a2e 953d d85b 443e f993 ad3e 19f0 9a3e
00000380: d243 2c3e e57c 4c3e 6ccb ab3e d8f1 713e
00000390: f99f 8b3e a99e 8f3e 884b 9b3e 1b34 a63e
000003a0: 30c6 9d3e fdc0 953e cddd 9a3e 207d 363e
000003b0: ae8c 393e aa03 413e 7a7b 9d3e c00c 603e
000003c0: 7473 c83e 9b5f a03e 0418 a43e eca8 a53e
000003d0: 277b 973e ff0c c83e d2ce c13e f826 b83e
000003e0: d471 473e bbe9 4f3d a1a1 9a3e c22f ddbe
000003f0: 5921 1b3e 006b ad3e fa0b 67bc 9f4c 663e
0.37142614 0.35240895 0.36598888 0.4607139 0.34068254 0.32034737 0.4359275 0.45041677
0.36657313 0.14223114 0.43695667 -0.48241097 0.16965708 0.41919598 0.25867677 0.31380126
0.0023814626 -0.006255377 0.04982617 -0.121974446 -0.0006032773 -0.1905757 -0.002133238 0.025093583
-0.008185996 0.25201613 -0.015304635 -0.039268874 -0.05285412 0.0045761736 -0.10957746 0.040678944
0.4511256 0.42213273 0.42178488 0.28324276 0.4474744 0.40756032 0.31636813 0.48194107
0.47690135 0.2975857 0.25351653 -0.616287 0.06029482 0.39427856 0.27330738 0.14030394
0.3434805 0.22963892 0.2321163 0.20193733 0.2203546 0.3760694 0.32804725 0.34052345
0.31654927 -0.53963816 0.27100196 -0.6924288 0.32788703 0.12581605 0.29882964 0.1787824
0.44676292 0.33983928 0.49930945 0.43722346 0.441356 0.42099673 0.4583436 0.42045322
0.3864646 0.012719689 0.43261674 -0.6553119 0.42063528 0.16809711 0.35947075 0.38132197
0.1390357 0.1523947 0.2971994 0.2744386 0.21906033 0.18370074 0.17994495 0.30496004
0.26565766 0.23789738 0.1479914 0.19799542 0.19999757 0.117430605 0.17286435 0.22764589
0.17181912 0.018367441 0.07610695 -0.082724944 -0.01996759 0.090465315 0.13372307 0.056813028
0.18562819 0.026923109 0.13212363 0.106463216 0.058610454 0.07605628 -0.052167382 -0.015181672
0.26675266 0.28939915 0.4087466 0.19631527 0.27262893 0.3773639 0.26065725 0.33429143
0.38177016 -0.36046568 0.23254697 0.24463502 0.26200047 0.21927029 0.304528 0.283049
0.3927257 0.29325157 0.43349338 0.37249687 0.2662865 0.44422472 0.2911844 0.4349154
0.23984523 -0.058841012 0.19520071 -0.40032634 0.12769036 0.36269578 0.23151702 0.41875094
0.14372751 0.22438364 0.14434433 0.20454563 -0.07771468 0.16382988 0.03354928 0.17378382
0.20015924 -0.042340986 0.032801233 -0.002957726 -0.017338498 -0.078443065 -0.11244678 0.030347498
0.41456902 0.12681167 0.51143754 0.33796623 0.3593976 0.46015462 0.4700488 0.4327172
0.4160666 -0.22455892 0.40998048 0.30119726 0.17906947 0.30988953 0.2711411 0.4322456
0.2689094 0.27370432 0.30408642 0.19621335 0.3134998 0.28197125 0.20477791 0.24957141
0.18714055 -0.15924992 0.15805271 0.19015197 0.028848886 0.17570919 0.16505203 0.15105394
-0.15563713 -0.07080379 -0.09102411 -0.27955818 -0.25027514 -0.10858676 -0.13983731 -0.084773645
-0.077794686 -0.051895194 -0.08584479 -0.2759465 -0.0553829 -0.081919655 -0.23791109 -0.042175952
0.31665528 0.13809845 0.32488647 0.31541708 0.22824816 0.3331753 0.3103821 0.3212324
0.22586723 -0.35918227 0.029723607 -0.23317629 0.072842196 0.1917566 0.33901957 0.30261305
0.16822746 0.19969518 0.33553636 0.23627412 0.27270487 0.28050736 0.30331063 0.32461628
0.30815268 0.292488 0.30247346 0.17821169 0.18120071 0.18849054 0.30758268 0.21879864
0.39150584 0.3132294 0.32049572 0.3235544 0.29586145 0.39072415 0.37853104 0.3596723
0.19477016 0.050760012 0.30201438 -0.432005 0.1514944 0.33870697 -0.0141019765 0.22490166

U_o f4 [32, 1, 16]
00000000: 4114 a23e 5a4f 9f3e 4c48 a93e 8f1f dc3e
00000010: 1c57 a03e 226f a63e 63f3 b43e cae6 df3e
00000020: 7729 a63e ac7b 373d 8669 d33e 0144 0cbf
00000030: 2aa7 393e 4a05 c13e 3815 0c3e 9e03 993e
00000040: aa6a 58bc 0937 03bc d15f aa3c c317 02be
00000050: ebab 37bd 6171 09be d778 a4bb 90fc 073c
00000060: d63d 723d bc8d 0d3f fc56 c0bc 7b56 9a3d
00000070: 0d4d aebd 9228 5fbd bc13 27be b7f8 3bbc
00000080: 7825 c33e 67be c53e 1963 b53e ac2f 873e
00000090: f113 b03e cd8d a83e ed79 663e 8841 cc3e
000000a0: 10d2 dc3e ac7f 6e3e c241 263e 82fe 14bf
000000b0: 61e9 73bc 349f b53e f2d0 333e 7041 ea3d
000000c0: 422a 773e a5ad 0f3e 9d86 473e f8bd 323e
000000d0: abf3 253e 6339 6e3e 8cbc 733e bb77 7c3e
000000e0: 06cd 753e 2da0 efbe 5908 3a3e 1d66 4fbf
000000f0: c429 493e 9038 ee3d 71d2 403e 47d5 143e
00000100: 804f e83e 3635 ba3e 7fcf ec3e 2788 d43e
00000110: 13d1 d83e f38f d23e 212e d13e 168b ed3e
00000120: 4218 c93e 0c2b 75bd 1919 e33e 4a76 34bf
00000130: 0756 cf3e 67be d53d f12f a73e 9803 b43e
00000140: 13d2 3e3e 55ca 0b3e 1c41 913e 6289 7f3e
00000150: be56 4b3e 9272 483e 9064 113e 1747 a03e
00000160: af69 833e f183 6f3e a02b a23d 5c89 063e
00000170: 7a6e 3e3e 1b41 833d f370 ec3c 0026 803e
00000180: 6784 0f3e 0ed3 593b e38d af3d 5158 84bd
00000190: 54c7 07bd eecb d93d dad7 ec3d bb26 363d
000001a0: 7d6f 1e3e 41b4 46bd 1dc0 003e ed2c 8f3d
000001b0: 7bd8 5b3d 5dad 253d be11 f0bd efa6 ca3c
000001c0: 910e 663e 684c 793e 984c b93e e77b 313e
000001d0: 518a 753e 2c71 b23e 25f0 7b3e 62ee a03e
000001e0: 7f00 c33e 52a2 8ebe bfa2 203e d0b8 813e
000001f0: 7992 573e e7ba 323e 7d5a 943e ce5d 813e
00000200: fddd ca3e 472b 873e 3032 de3e 312c a83e
00000210: e133 693e 30a3 c73e 70e8 3e3e c695 df3e
00000220: 7554 813e 93db 62be 5c5f 253e 8a09 b6be
00000230: 91a3 d63d acfd 9a3e 0377 d73d 3255 ce3e
00000240: d750 103e 570c 3b3e 24d2 0d3e aaee 0d3e
00000250: a2cf 5ebd 3041 053e 98c6 a9bc eefd 303e
00000260: f982 323e a688 17be 4186 88bb dabb 49bd
00000270: 4100 6cbc 0753 83bd c9f5 25be 480d adbc
00000280: 6007 933e 7725 a43d ca56 d33e b1d1 8d3e
00000290: f66a a53e 481a bd3e f7b6 b53e 9d5d a13e
000002a0: cbdc af3e 8037 bbbe aec9 813e 757b 633e
000002b0: 679b c83d 7be3 883e 9caa 043e a8ca 9e3e
000002c0: 2196 833e 8a72 8a3e cb52 783e fcdc 353e
000002d0: 163d 813e 3675 823e d0cc 323e f62a 773e
000002e0: 611d 653e 10a6 a8be 8dec 0d3e 7f25 3a3e
000002f0: 6e4a c1bc 8d88 1f3e 014e 493e 8d31 3b3e
00000300: c5c7 0bbe 86b5 01be 35c7 c6bd 2bc9 5bbe
00000310: e0f6 62be 8c67 cebd 2bd0 08be 1eca bbbd
00000320: fae3 8cbd 6ef4 08be 8dc4 52bd 99cd 56be
00000330: 7e2b c6bd 1b93 92bd 84b4 84be 0fe5 aebd
00000340: b748 803e f551 133e a269 a83e 2bf8 853e
00000350: a0cd 733e b6b4 9a3e ad7c 823e 3d0c 9a3e
00000360: fece 433e 8140 95be e812 94be a60d 51be
00000370: ea76 683c 5020 1f3e 1db9 7d3e 1f42 ac3e
00000380: 42db 383e 5499 623e c3f2 9e3e 0600 623e
00000390: 385f 913e 470b 5d3e d47e 8d3e 46bc a83e
000003a0: 7fda 933e 8094 593e 7215 863e 494c 0c3e
000003b0: e2d1 4b3e b06c 043e 858b 503e bc61 473e
000003c0: ce59 a33e cca5 923e 897f a23e c66a 953e
000003d0: 9a53 813e 4ac6 a73e 5b8d b43e c31b ae3e
000003e0: 86d9 383e 0574 c7bc aa57 873e fbd3 00bf
000003f0: e817 c43d a716 b13e 8c23 33be 9c24 353e
0.31656078 0.31115228 0.3306297 0.42992827 0.3131646 0.32506663 0.3534194 0.43730766
0.3245351 0.044795677 0.41291445 -0.54791266 0.18130174 0.37699348 0.1367997 0.29885572
-0.013209024 -0.008008727 0.020797642 -0.12704377 -0.044841688 -0.13422157 -0.005019288 0.008299962
0.059141003 0.55294394 -0.023478977 0.07536026 -0.0851079 -0.05448205 -0.16316122 -0.011472872
0.38114524 0.38621828 0.35427168 0.26403558 0.34390214 0.32920685 0.22507448 0.39893746
0.43129015 0.2329089 0.16236022 -0.5820085 -0.014887185 0.35473025 0.17560175 0.114382625
0.24137214 0.14031084 0.19484945 0.1745528 0.16206233 0.23264079 0.23802394 0.24655049
0.24003991 -0.46801892 0.18167247 -0.8101519 0.19644839 0.11631882 0.18830277 0.14534484
0.45373154 0.36368722 0.46252057 0.41510126 0.4234701 0.4112545 0.40855506 0.46395177
0.3927632 -0.059855506 0.44355085 -0.70492995 0.4049532 0.10436707 0.32653764 0.35158992
0.18634824 0.13651402 0.28369987 0.24954751 0.19857308 0.19574955 0.14198518 0.31304237
0.25666568 0.23390175 0.07918477 0.13138336 0.18596831 0.06408902 0.028862452 0.25028992
0.14015351 0.003323737 0.085719846 -0.064621575 -0.03314908 0.106345996 0.11564608 0.04447053
0.15472217 -0.048511747 0.12573285 0.06990991 0.05367325 0.040448535 -0.11722134 0.024737803
0.22466494 0.24345553 0.3619125 0.17332421 0.23978545 0.34851968 0.24603327 0.31431872
0.38086316 -0.27858216 0.15687083 0.25336313 0.21051969 0.1745411 0.28975287 0.2526688
0.3962249 0.26400205 0.43397665 0.32846215 0.22773696 0.3899169 0.18643355 0.43668956
0.25259748 -0.22154073 0.16149658 -0.35554153 0.104804166 0.3027166 0.105207466 0.40299374
0.14093338 0.18266426 0.13849694 0.13860574 -0.054397233 0.13013148 -0.02072458 0.17284366
0.17432775 -0.14798221 -0.004166395 -0.049251415 -0.014404357 -0.064123206 -0.16207041 -0.021124497
0.28716564 0.08014958 0.41277152 0.27699044 0.32308167 0.36934114 0.35491154 0.31516734
0.3434814 -0.3656578 0.25349182 0.22215064 0.09795266 0.26736054 0.12955707 0.3101399
0.25700477 0.2704051 0.24250333 0.1776008 0.25241917 0.2548005 0.17460942 0.24137482
0.22374488 -0.32939196 0.13859768 0.18178366 -0.023595061 0.15579434 0.19658662 0.18280621
-0.13650425 -0.12666902 -0.097059645 -0.21463458 -0.22164488 -0.10078344 -0.1336066 -0.0916941
-0.068794206 -0.13374493 -0.051456977 -0.20976867 -0.09676264 -0.071569644 -0.25918972 -0.08539783
0.25055477 0.14386733 0.3289309 0.261659 0.23808908 0.30215997 0.25485745 0.30087462
0.1912193 -0.29150775 -0.28920674 -0.20415363 0.014188508 0.1553967 0.24777646 0.33644196
0.1805239 0.22128803 0.31044587 0.22070321 0.2839296 0.21586333 0.27635825 0.3295614
0.28877637 0.21248055 0.26188236 0.13700975 0.19904283 0.12932086 0.20365722 0.19470876
0.31904453 0.28642118 0.31737927 0.29183024 0.25259095 0.3276847 0.35264096 0.34005556
0.18051729 -0.024347315 0.2643407 -0.50323457 0.09574872 0.34587595 -0.17494029 0.17689747

W_j f4 [32, 16, 16]
00000000: a446 f3bc dbfc 85bd 65ff 3f3c 3dc0 8d3d
00000010: 2360 c53d 6c1d 90bc ef38 2bbd bb9d c13c
00000020: 394a 993d 463a 09be cf9f bdbb b8d9 b9bc
00000030: 8a0b 0dbe 6fac 253d b690 94bd 638b af3d
00000040: 1706 55bd 10bc 42bd d0c6 3d3d ef18 a13d
00000050: 0edb 553d fc84 ddbb 6b83 b5bc e8fd a73c
00000060: 288b 863d dd17 86bd 9f62 6d3c 2351 adbc
00000070: 8d31 dbbd ff4a 863d 3062 bfbd 2bad d83c
00000080: 8666 133d 1bba 123d 6e72 e7bc 2982 3ebd
00000090: 0c9c 08bd c2e8 123d 8db2 b23c edae a2bc
000000a0: 4805 e9bc d961 a03d d598 e7bc 9cbc 35bd
000000b0: 4362 f53d cfad 5fbd c307 663d fc16 84bd
000000c0: 1cf7 80bd 8dbe b2bd 2e2c e73d 088d a03d
000000d0: 1955 b03d f4e3 c2bd b4e9 b2bd 9437 ae3d
000000e0: 82bb 3b3d 9ad0 71bc 3dbc e03d 7153 c5bd
000000f0: 36cc 90bc 48e2 673d e8d2 cebd d67a e43d
00000100: 9efd 493a 3d28 963c ae42 0e3d ed7f 0a3d
00000110: a60e 2ebc f1ce 07bd 62f2 c13c d3e1 253d
00000120: dd09 cfbb dfc1 c63d e903 b33c 64c4 8dbc
00000130: df57 c53d 6e88 f93b d250 453d e2b3 c2ba
00000140: 86e9 eebc 9e66 c4bd 4073 4e3d f24e 563d
00000150: fa99 913d 3a3c 1abd 7199 30bd 5a99 5b3d
00000160: 92b9 8e3d ed9b d3bd ae9f 5d3b e145 9ebc
00000170: 6467 2bbe 04b5 8d3d 3bb4 b6bd d752 893d
00000180: 30a7 a83d 72b9 a63d b0e5 0ebe b71d bcbd
00000190: aa4a 8abd c962 603d dbe0 f13d 2a14 ccbd
000001a0: 936f 99bd 7280 463d 3ae3 babd 2a60 cc3d
000001b0: 13bf 033d 8342 8fbd 57ce 9e3d 3b77 b3bd
000001c0: 656f b9bd 261f ddbc 028e cf3d 45cf 8e3d
000001d0: 5ed4 d23d 7732 13be d236 d8bd 0f3a ac3d
000001e0: fbb5 ad3d 7b2a cebc e1e6 dd3d 0837 0cbe
000001f0: 99b8 78bd 66d0 9e3d 3104 dabd ef1f b33d
00000200: 93d6 033e f670 e53d 8dea 8cbd b442 0abe
00000210: dd92 01be 69a6 343d ac42 ea3c f441 51bd
00000220: 8e00 e4bd 3285 c13d 70ef aebd a951 a53d
00000230: 0ab6 453e 662a cdbd a8af dd3d c017 27be
00000240: 7897 da3c dbcd 23bd dcb1 07bd 1a70 d139
00000250: 5657 643c 8697 fb3c f4c3 043d 8ae0 22bd
00000260: 3f02 233c a1fc a7bd 8d23 8ebc 5ea7 08be
00000270: 36bb 64bd 5818 173c 228a 38bd 16d1 273d
00000280: 9f88 a4bd 36dd e0bd 6770 0f3e c75d 3b3d
00000290: dfe1 c73d b611 fdbd a600 d0bd c3a5 9a3d
000002a0: ea3d d63d 5780 99bc 1f40 713d 4417 d6bd
000002b0: 0cc3 62bd e6e8 a43d f26f b0bd 4e59 0a3e
000002c0: 88f8 cc3d d70c 0b3e 8539 3abe 2c16 a9bd
000002d0: fc57 59bd 2684 f53d 27eb e73d 25b1 17be
000002e0: 0237 f4bd fa8e 2c3e 6f0c 11be 2e28 c7be
000002f0: 75ef a03d 9522 bfbd 2faf 803c 03de a9bd
00000300: ef88 01bd ddc0 30bd 31a5 afbb ef80 7a3d
00000310: 349f 923d de85 96bc 5838 99bc b51f 9fbc
00000320: 376d 413d 6577 b8bd f762 d13c 2314 2ebd
00000330: 028e 10be acd3 b23c 443b afbd e01a 623d
00000340: df4e babd 97c9 7ebd 4ba4 013e dc10 a03d
00000350: da7b b33d 41c0 08be b416 b9bd 509e 0a3e
00000360: 0552 673d 312a 08bc 6d87 af3d 12ee bebd
00000370: bc93 ccbb 36e5 873d 9057 acbd da78 7f3d
00000380: e1dd 6abd 3633 c5bd 200e e13c 4847 ec3c
00000390: bdb4 f33d c30f c0bc 136f 1dbd 65ca 9b3c
000003a0: c019 c63c 4f32 08be e79c fb3c 71f0 56bd
000003b0: 2566 d3bd 7645 603d 1b3d d5bd f965 603d
000003c0: 349f ec3c 42aa 743d d381 83bd 9b79 8abd
000003d0: 36ab acbd 40df 103c 0154 de3c f024 3abd
000003e0: 06d6 45bd b489 dd3d 442d 9cbd 3519 f33c
000003f0: d2b4 0b3e f049 17bd ab5c 693d e304 4fbd
-0.02969677 -0.06542369 0.011718606 0.06921432 0.09637477 -0.017592154 -0.041802343 0.023634782
0.0748486 -0.13401136 -0.005786873 -0.022686824 -0.13773933 0.04044765 -0.07254164 0.08571508
-0.05200776 -0.04754263 0.04633218 0.07866084 0.05221086 -0.0067602377 -0.022157392 0.020506814
0.06569511 -0.0654752 0.014488845 -0.021156853 -0.107028104 0.06557273 -0.093449 0.02644976
0.035986446 0.035822015 -0.028252807 -0.04651085 -0.033351943 0.035866506 0.021813655 -0.019858802
-0.028444901 0.07831163 -0.028271118 -0.044369325 0.119816326 -0.054609116 0.056159746 -0.064496964
-0.062971324 -0.08727751 0.112877235 0.078393996 0.08609981 -0.09516135 -0.087359816 0.085066944
0.04583312 -0.014759207 0.109734036 -0.09635056 -0.0176755 0.056612283 -0.10098821 0.111562416
0.00077053334 0.018329734 0.03473156 0.033813406 -0.01062361 -0.03315634 0.023675147 0.040498566
-0.0063183145 0.09704947 0.02185245 -0.01730556 0.09635901 0.0076151406 0.04817278 -0.0014854635
-0.029164087 -0.09589885 0.05040288 0.052321382 0.07109447 -0.037655093 -0.043115083 0.053613044
0.069689885 -0.10332475 0.00338171 -0.01932043 -0.16738659 0.069192916 -0.08921095 0.067052536
0.082350135 0.0814084 -0.13954806 -0.09185355 -0.06752522 0.05478171 0.11810466 -0.099647835
-0.07491984 0.04846234 -0.09125371 0.09979279 0.032164644 -0.06995108 0.077542 -0.08762976
-0.0905445 -0.026992392 0.10134508 0.06973127 0.10294412 -0.1437472 -0.10557331 0.08409511
0.08481976 -0.02516674 0.10835052 -0.13692868 -0.06072292 0.077545926 -0.10645331 0.08746325
0.12874822 0.11203186 -0.068806745 -0.13502008 -0.1265368 0.044104014 0.028596245 -0.05108829
-0.11132918 0.09449233 -0.08541763 0.08072216 0.19307724 -0.100178525 0.108245194 -0.16317654
0.026683554 -0.03999124 -0.033128604 0.0003994711 0.013936838 0.0307119 0.032413438 -0.03976492
0.009949266 -0.08202482 -0.017350936 -0.13345096 -0.0558426 0.009222113 -0.04505361 0.040970884
-0.08033871 -0.10979693 0.14007722 0.04574373 0.09759878 -0.12356894 -0.10156374 0.07551148
0.10461028 -0.018737955 0.05889904 -0.10453656 -0.055361792 0.08052234 -0.08615102 0.1351063
0.10008341 0.13579117 -0.18186004 -0.08256182 -0.053062424 0.11988096 0.113241486 -0.14813669
-0.119245544 0.16851416 -0.141649 -0.38897842 0.07858173 -0.09332768 0.015708534 -0.082942985
-0.03162473 -0.04315268 -0.0053602685 0.061158117 0.07159272 -0.01837438 -0.018703625 -0.019424299
0.047223296 -0.09007148 0.025559885 -0.042499673 -0.14116672 0.021829449 -0.08556226 0.05520141
-0.09097075 -0.06220397 0.12660329 0.07815716 0.08763857 -0.13354589 -0.090375334 0.13536954
0.056474704 -0.00831084 0.08570752 -0.09322752 -0.0062431972 0.066355154 -0.08415139 0.062371112
-0.057340506 -0.09628908 0.027472556 0.028842583 0.118997075 -0.023445016 -0.038436007 0.019017408
0.0241822 -0.13300441 0.030714465 -0.052475397 -0.10322217 0.054753743 -0.104120456 0.05478475
0.028884508 0.059732683 -0.064212464 -0.06761476 -0.084310934 0.008842289 0.027139666 -0.045445383
-0.04829981 0.108172804 -0.07625821 0.029675106 0.13643196 -0.036935747 0.05697314 -0.05054177

W_i f4 [32, 16, 16]
00000000: 7cec f73d 3752 643d ef2d 363e 1734 c23c
00000010: c3ec b13d 44e2 123e 02be af3d b86c 713d
00000020: 162b bf3d 994f c0bc 56bb 733d 99c7 e3be
00000030: 2187 013d 6d47 553d f39e 043d 658f 523d
00000040: 140d de3d 75aa 8f3d 7769 283e eab0 003d
00000050: e62a cb3d eacc ae3d 2878 983d 61f2 a53d
00000060: e213 6a3d c3a7 70bd ed55 4b3d a5e4 d4be
00000070: 4062 03bd 0363 ae3c 900d 113d bb3c a93d
00000080: 76d1 17be 8571 f1bd a562 febd f485 18bd
00000090: 1848 fbbd 5b38 04be 2f6b 9cbd 85b0 a9bd
000000a0: da3d d5bd bee8 803d 7cdc 95bd 5828 c73e
000000b0: 6bb8 37bd 3b76 08bd 59a7 58bd e626 bfbd
000000c0: fbb3 8bbd 38df 64bd 1eca 0abe 50c5 bcbd
000000d0: 6647 36bd 0cdd a3bd b5d7 e8bd 9b83 34be
000000e0: 936b 0fbd 35be 923d 0ab9 ffbd b1bc 033f
000000f0: d610 113d f409 29be 6882 093d aa6a c3bc
00000100: d06c f7bd fbcd c8bd 26dc 0dbe 7a88 d8bd
00000110: 4053 03be fefa ffbd 551c e0bd a7d9 bcbd
00000120: b093 02be 2ed3 483d 13f1 b8bd 101f e93e
00000130: c4e7 8bbd dd89 98bd 2694 0bbd 5283 d7bd
00000140: 2817 0c3e 08bf 963d 2bbf ff3d 6a7c 013a
00000150: 323d ac3d bfa1 143e f7f6 d13d 8e8f c43d
00000160: e971 bd3d abc6 82bd a8eb a13c 4bb6 dcbe
00000170: 1a52 113b 0a67 4c3d 9cb6 023d 50ba d93d
00000180: 3d24 a03d 7041 5c3d 6a8b 0d3e f95a f93d
00000190: 6e94 fd3d 599c e13d 4616 c73d 3520 dd3d
000001a0: d4ed b53d 6410 43bd c594 013e af0a 05bf
000001b0: 88c8 ebbc 1348 bc3d 5f4f b13b a690 943d
000001c0: fc1d cebd 6cdf c3bd 4431 1bbe e047 12be
000001d0: 1962 a7bd e956 c7bd 4f80 12be 77e4 1fbe
000001e0: 33f5 3dbd da09 623d 7a37 02be f74a 113f
000001f0: 0f14 d13b ee3d cbbd c750 e5bc 38b4 46bd
00000200: 0727 b4bd 3cb7 80bd 652d f9bd ac4e 763c
00000210: 8806 a3bd d69e a9bd 90dd 92bd 69fd 10bd
00000220: 1fef 76bd 8316 993d 7a25 91bb d80e ba3e
00000230: 3451 c4bc 2128 3bbd 3a9e fd3b 75ef 90bd
00000240: 4669 b73d f5c5 ed3c d941 003e 0648 533c
00000250: 8f14 933d 28bc bc3d 907a bd3d cb7d df3d
00000260: d174 8f3d 23af 59bc ab4e cf3b 236d a6be
00000270: 92e7 4d3d 4d86 173d fae5 dd3c cfac 5b3d
00000280: e5f6 7fbd b62e 7ebd 9139 d1bd 1fef d0bd
00000290: 1b89 4dbd 33b5 90bd ca1c 03be 854b 1fbe
000002a0: 67b2 68bd 2825 d23d 49e7 00be 9ea9 153f
000002b0: a3e3 aa3d 9164 d9bd 4756 a5bb 06d2 50bd
000002c0: cc80 c23b 0e07 f33c b32a 8ebc e4df b1bd
000002d0: 07db d5bb b472 99bc 8b9e ccbd cff3 2fbd
000002e0: cf5d 423d 8a34 37be d8db 7bbd 6a5a ce3e
000002f0: d4c6 ce3c bc12 c0bd ab51 fdbc 4b24 313d
00000300: ed94 063e 9bd6 c03d c256 153e 25fe 6e3c
00000310: 7b50 8b3d 4048 e63d d9fe c03d 1c6d b13d
00000320: 11a1 d23d 8cd8 48bd c010 ec3c 35ca aabe
00000330: d9d0 833d aecd 553d e713 633d 14b9 853d
00000340: 3cfa 64bd 5476 95bd aa08 00be 1fb7 febd
00000350: dd0d b9bd 635f dcbd 69eb 0fbe ea7e 23be
00000360: f77d 9ebd 01ba 9b3d 4963 e0bd 7da7 023f
00000370: 7ceb a2bc f8ba fabd 1ea9 9abb cbb9 96bd
00000380: a9e8 a03d 4e4f 693d ee4c f73d 1936 0e3b
00000390: 9688 ff3c 7d5a b93d 044a d23c 5ca9 443d
000003a0: 06be 633d 1f38 30bd 7afb 953c 700c d2be
000003b0: 3eb9 463c b6b6 4b3d c59a 0d3c d153 8a3c
000003c0: b6e5 80bd a4e1 86bd 4dde 11be 7716 37bd
000003d0: fa46 c6bd 823f 11be 4b50 90bd 8633 9abd
000003e0: 8a33 b5bd 7c87 293d b81b d1bc 6bd9 df3e
000003f0: 72a3 e6bc 93a7 4dbd 4e97 18bd 767a 7cbd
0.12105653 0.05574247 0.1779096 0.023706479 0.08687737 0.14344126 0.08581163 0.058941573
0.0933439 -0.023475455 0.05950483 -0.44488218 0.03162301 0.05207007 0.03237815 0.051406283
0.10842338 0.07014934 0.16446482 0.03141872 0.099202916 0.08535178 0.07444793 0.08102871
0.057147868 -0.05875374 0.049642492 -0.41580692 -0.03207612 0.021287447 0.035413325 0.082635365
-0.14825997 -0.1178923 -0.12421159 -0.037237123 -0.1226961 -0.12912123 -0.07637631 -0.082856216
-0.10412188 0.06294392 -0.07317445 0.38897967 -0.04485361 -0.03331588 -0.05289397 -0.09333591
-0.06821438 -0.05587694 -0.13553664 -0.09217322 -0.044501685 -0.08001146 -0.11369268 -0.17628329
-0.0350147 0.07165185 -0.12486465 0.51459795 0.035416447 -0.16507703 0.03357163 -0.023854572
-0.12081301 -0.09804913 -0.13853511 -0.10572906 -0.12824726 -0.12499045 -0.10942904 -0.092212014
-0.12751651 0.04902952 -0.09030356 0.4553151 -0.06831315 -0.0744817 -0.034076832 -0.10523094
0.13680708 0.07360655 0.12487634 0.00049394986 0.084101096 0.14514826 0.10252183 0.095976934
0.09250242 -0.06385549 0.01976569 -0.43107828 0.002217418 0.049902953 0.03191243 0.106312394
0.07819412 0.053773344 0.13822713 0.12175555 0.12381826 0.11016149 0.09721045 0.10797159
0.08883253 -0.047623053 0.12654407 -0.51969427 -0.028782144 0.091934346 0.005411073 0.07254152
-0.10064313 -0.09564099 -0.15155512 -0.1428523 -0.081730075 -0.09733374 -0.14306758 -0.15614496
-0.04637642 0.055185176 -0.12716475 0.5675501 0.006380565 -0.099239215 -0.02799262 -0.048511714
-0.087965064 -0.06284949 -0.121668614 0.015033405 -0.0796023 -0.08282249 -0.07171166 -0.03539792
-0.060286637 0.07474997 -0.0044295164 0.3633945 -0.023964502 -0.045692567 0.0077398093 -0.07076923
0.08955626 0.029025057 0.12525119 0.01289559 0.071816556 0.092155755 0.092518926 0.10912665
0.07004703 -0.013286385 0.0063265166 -0.3250514 0.05026967 0.036993314 0.0270872 0.0536316
-0.062491316 -0.062056266 -0.10216058 -0.10201859 -0.050179582 -0.07065811 -0.12803951 -0.15556152
-0.056810763 0.10260993 -0.12588228 0.5846194 0.083441995 -0.10614885 -0.0050456855 -0.050981544
0.005935764 0.02966645 -0.017354345 -0.08685282 -0.0065263542 -0.018731453 -0.09991177 -0.042957123
0.047452744 -0.17891136 -0.061488956 0.40303355 0.025241293 -0.09378573 -0.030922731 0.043247502
0.13142748 0.09415933 0.14583877 0.01458696 0.0680246 0.11244249 0.09423608 0.08663389
0.10284627 -0.04903464 0.02881658 -0.33357397 0.06436319 0.052198105 0.055438902 0.065294415
-0.055902705 -0.0729796 -0.12503305 -0.12437271 -0.09035847 -0.10760381 -0.14054646 -0.15966383
-0.0773887 0.07603837 -0.10956437 0.51036817 -0.019887678 -0.12242693 -0.0047198674 -0.07359656
0.078568764 0.056960396 0.1207522 0.0021699725 0.031193059 0.090504624 0.025670059 0.048013076
0.055601142 -0.04302227 0.01830839 -0.41025114 0.012129126 0.049734794 0.008642857 0.01688567
-0.06293814 -0.06586006 -0.14244957 -0.04469916 -0.096815065 -0.14184383 -0.07046565 -0.075293586
-0.08847721 0.041388974 -0.025525913 0.43720564 -0.028154109 -0.05020864 -0.03725367 -0.061640225

W_f f4 [32, 16, 16]
00000000: a53e 2d3e b109 fa3d 5614 123e 66b2 583c
00000010: 64bd 1d3e 8b93 263e e795 e63d 2535 c53d
00000020: 5e89 b23d da02 1a3c 56f6 e33d b8e5 debe
00000030: a234 053d f5ed 533d 3419 993d c2f9 e43d
00000040: 1576 213e 8985 ac3d c261 133e cd57 593d
00000050: 689a d43d ee3c 233e 038a f83d fc36 ea3d
00000060: 3624 023e 6fbe 13bd 1d7f 643d d30a d1be
00000070: 38ea 023d 14d3 8e3d 4658 f73c 757b a63d
00000080: 6cd5 1dbe abf0 15be 3a7c 3cbe 2e16 89bd
00000090: 6ffd 0bbe 01f2 04be 3f2f 14be fcc2 fdbd
000000a0: 5454 ecbd 3991 b53c d9a7 c1bd c42c e43e
000000b0: fbdf 6abd f47f cbbd 201a d1bd ac9e 15be
000000c0: fbe7 b1bd 169e a1bd 7704 febd 496d 34be
000000d0: 02ab 0dbe d01f bbbd 78c7 60be c373 40be
000000e0: f3be 88bd 1271 823d 6507 33be f686 043f
000000f0: e220 61bb cadb 42be bd41 8ebd d6ee d5bd
00000100: 081a 19be 9ae4 dbbd e436 31be 2bdc cbbd
00000110: 1f08 3ebe 2383 3ebe 772e 39be 19a7 e8bd
00000120: d53f f2bd b473 043d 366d bbbd d54d f83e
00000130: caa5 47bd dc94 dcbd 5be7 b3bd ffc6 f4bd
00000140: c2f1 173e ab34 863d 50a8 0e3e 942e d03c
00000150: 2f28 1a3e b99c 253e feea 143e 53aa c53d
00000160: bb17 973d 1b09 2bbd f68b 843d 9848 cebe
00000170: 23d2 3d3d e041 793d ac6c 423d d8b2 da3d
00000180: 529d 0c3e 9901 9e3d 66bc 143e 940b 2c3e
00000190: e1b5 2f3e f47f 323e 6667 433e eecd 2d3e
000001a0: 6466 cc3d d7d6 d93b 297d f83d ec52 08bf
000001b0: 1aea 633d 89db 0e3e 5530 8f3d aa0b ba3d
000001c0: 2352 dbbd cc27 85bd 9a3b 12be 6f7c 57be
000001d0: c32f c3bd 9a62 09be 27d0 23be b0b8 2cbe
000001e0: 0389 8ebd 5bfa ff3c 8338 2ebe 9030 093f
000001f0: 58cd e33c a995 48be 0ab0 71bd 98b4 c0bd
00000200: 25d1 13be fec9 98bd 6442 27be fd54 52bd
00000210: 85ac 09be b5ac d7bd 00cb 01be 2a02 9cbd
00000220: a2de 22bd b995 ef3b a827 dcbd 31fc cb3e
00000230: a08e 13bd e617 42bd ec5c 83bd 8359 b2bd
00000240: d2ff 103e 844b 673d e2d5 0a3e b34d 283d
00000250: 8262 cf3d 74c3 fd3d bc48 df3d d324 ac3d
00000260: 0ec8 9f3d fb24 40bd 1c1d 9b3d acf2 bdbe
00000270: ceaa 9f3d acf2 8e3d 1231 6a3d 5034 e73d
00000280: 7de6 c8bd e820 96bd e6ec f2bd 21db 29be
00000290: 70e3 dbbd d829 f1bd d589 e2bd 1e35 3abe
000002a0: 01e2 6fbd 78bd c13c fbe0 0dbe c678 083f
000002b0: 61d4 c53c fe9b 22be a158 31bd 4d8a c1bd
000002c0: 3e23 34bd 22af 1e3c ab83 d7bc ad6f 79bd
000002d0: 5047 18bd 597d a3bb fbe7 ecbd 5217 72bd
000002e0: 3c67 993c 23e3 76be c0ad c6bd 5383 ae3e
000002f0: 842a 34bc eded c7bd 7808 13bd 1950 863b
00000300: 0f65 ef3d af91 c73d 03cd 0e3e e4a3 be3d
00000310: 8e09 293e 38f6 1f3e 424c 2c3e 4d3e 0c3e
00000320: 8cd1 d33d d25b bebb bf4f 943d 1ab4 babe
00000330: 875a e53c 5384 853d 7187 953d 8b0d ee3d
00000340: 125d a5bd 6875 5cbd 39ac f5bd 88fd 29be
00000350: 2ba6 c4bd 47db 0cbe 6e11 21be 4e51 3cbe
00000360: 184d 62bd 9faa e73c 4e90 25be 1993 103f
00000370: 9748 f7bb 6c3b 08be 58c9 63bc 1e4e cbbd
00000380: 7d6e bf3d b24f e73c 291d f83d 225e 6a3d
00000390: 3467 b83d 9945 e53d 55d9 de3d 829d 8f3d
000003a0: 1c23 843d e759 17bd 8155 2f3d 3a6e f9be
000003b0: 1184 a63c 43fe 3a3d db50 a53a 8bc0 f53c
000003c0: efa3 fbbd c15b adbd 81e0 32be 5e7b afbd
000003d0: b733 f6bd 75b2 ccbd 7bd5 debd f8da c3bd
000003e0: 9c15 acbd b5af 163d 71e6 b4bd 8057 dd3e
000003f0: 334b 11bd 644d b0bd ee3f 4abd 3147 c3bd
0.16918428 0.1220888 0.1426557 0.013226127 0.15404278 0.1626722 0.1125906 0.09629277
0.08717607 0.009400094 0.11130969 -0.43534636 0.032520898 0.051740605 0.0747551 0.1118045
0.15767701 0.08423907 0.1439276 0.05306225 0.10381013 0.15941212 0.12135699 0.11436269
0.12709126 -0.036070284 0.055785287 -0.4082857 0.03196165 0.06973854 0.03019346 0.08129016
-0.15413445 -0.14642589 -0.18406764 -0.066936836 -0.13670896 -0.12982942 -0.14471148 -0.12390706
-0.11539522 0.022163974 -0.094558425 0.44565403 -0.05734251 -0.099365145 -0.10210061 -0.1461131
-0.08686825 -0.078914806 -0.12403195 -0.17619814 -0.13834766 -0.09136927 -0.21951091 -0.1879416
-0.06677046 0.06369223 -0.1748329 0.51768434 -0.0034351875 -0.19029155 -0.06946132 -0.10445945
-0.14951336 -0.10736962 -0.17306095 -0.09954103 -0.18557785 -0.18604712 -0.18084131 -0.11359996
-0.11828581 0.032336906 -0.0915169 0.4849688 -0.048742093 -0.1077058 -0.08784362 -0.11952018
0.14838317 0.06553014 0.13931394 0.025412835 0.15054391 0.16173066 0.14542767 0.096516274
0.07377573 -0.04175673 0.06472008 -0.4028976 0.04634298 0.06085384 0.04746692 0.10678643
0.13731888 0.077151485 0.14524993 0.16801292 0.17159225 0.17431623 0.19082412 0.16973087
0.09980467 0.0066479254 0.121332474 -0.5325153 0.05564318 0.13950934 0.069916405 0.09084256
-0.10709026 -0.06501731 -0.14280549 -0.21043561 -0.09530594 -0.1341652 -0.15997373 -0.16867328
-0.06959727 0.031247308 -0.17013745 0.53589725 0.027807876 -0.19588341 -0.059005775 -0.094094455
-0.14435251 -0.07460402 -0.1633392 -0.051350582 -0.13444717 -0.10530988 -0.12675095 -0.076176
-0.0397631 0.0073115495 -0.10749751 0.39840844 -0.03602469 -0.047386073 -0.06414208 -0.08708479
0.14160088 0.0564685 0.13558152 0.041089725 0.10126211 0.12390795 0.10902545 0.08405461
0.07801829 -0.046910267 0.075739115 -0.37099206 0.0779625 0.0697988 0.057175703 0.11289275
-0.09809587 -0.07330495 -0.11861591 -0.16587497 -0.1073674 -0.11775559 -0.110614456 -0.18184325
-0.058565143 0.023649916 -0.13855354 0.53309286 0.024149122 -0.15879819 -0.043297414 -0.09450207
-0.043978922 0.00968531 -0.026307901 -0.060897518 -0.037177384 -0.004989308 -0.11567684 -0.05910427
0.018725984 -0.24110083 -0.09701109 0.34084567 -0.010996465 -0.097621776 -0.03589675 0.004098904
0.11689197 0.09744584 0.13945393 0.093086034 0.16507551 0.15621269 0.16825965 0.13695641
0.10342702 -0.0058092857 0.07241773 -0.36465532 0.027997268 0.065193795 0.07301224 0.11623677
-0.080743924 -0.053822905 -0.119957395 -0.16600621 -0.096020065 -0.13755523 -0.15729305 -0.1839039
-0.055249304 0.0282796 -0.16168329 0.56474453 -0.007546495 -0.13303918 -0.013902985 -0.09927009
0.09347246 0.028236244 0.12114937 0.05721868 0.090040594 0.11194915 0.108812965 0.07012464
0.06452009 -0.036950972 0.042806152 -0.4871691 0.020326646 0.04565264 0.0012612598 0.029999038
-0.12287127 -0.08464766 -0.17468454 -0.08568452 -0.120215826 -0.099949755 -0.10880562 -0.09563249
-0.08402559 0.03678866 -0.08833016 0.4323082 -0.035472106 -0.08608511 -0.049377374 -0.09535063

W_o f4 [32, 16, 16]
00000000: 56de 8e3d 63f3 cd3d 1c4e 073e 3d74 ec3a
00000010: ae55 ae3d af00 dd3d 5058 c93d b0f7 863d
00000020: 93cb e33d 6ce5 24bd f1bb 4f3d fd05 c2be
00000030: 2a34 a3bb c479 0bba 0b33 a23c 4542 473d
00000040: 4bd7 9c3d 06de 393d ca5f f13d 30dc f73c
00000050: 8691 953d 72d0 bf3d c981 7d3d 6ec1 973d
00000060: 813b 8b3d 3b43 63bd 95dd 173d c04d ddbe
00000070: ff9e 5cbd f0dd 2a3d bcaa f13c 56f7 153d
00000080: 8224 d4bd fe9d e8bd 940f 0cbe 06be afbd
00000090: 9163 d4bd ae49 04be 466b e2bd f05d d8bd
000000a0: 0e65 89bd 7528 b33d e179 debc a5a0 d93e
000000b0: 9d2f 2fbd f39f 8bbd 919a 87bd 9eba 54bd
000000c0: dfff 62bd 5a62 17bd 3d54 e9bd 8ae5 20be
000000d0: 3920 4dbd d695 94bd 51b3 ffbd ca11 05be
000000e0: 7a6e 21bd 3442 a13d 253c d1bd 61f4 0d3f
000000f0: 9266 a23d 10cf d3bd 1df6 053d 6880 69bd
00000100: 9c59 d5bd 920c 9fbd c988 36be 4f34 82bd
00000110: f43a 0ebe e650 07be 5fd1 03be 44b0 8dbd
00000120: 7c62 ddbd 38e4 2e3d a3ab 6abd baac ea3e
00000130: c2dd feb9 d3ee 33bd d37a 98bc 024f e9bd
00000140: 25ed 8a3d c1c2 ab3d f636 193e 1b9e 3f3c
00000150: 46d4 cb3d f2c9 de3d 7a1a ce3d 5625 753d
00000160: cbd3 433d 6f01 aebd c2a1 3f3d 3a23 e9be
00000170: ec7d 56bb b40f a83c f044 633c b276 b53d
00000180: 9765 983d 6d4f fb3d f68c 1c3e 4e6d d33d
00000190: 65e1 e23d 1515 c83d d01d 1a3e 98d3 313e
000001a0: 8c3e b43d ae31 5bbd 6895 c63d d3c4 0bbf
000001b0: 5e31 2c3d 30c0 0a3e 642f 1a3d 1765 6f3d
000001c0: 53e1 6ebd e3aa f2bc bb35 e7bd 2de6 16be
000001d0: 3d6c 8ebd 9106 75bd f77f 0bbe afc6 40be
000001e0: 9dbc 2fbd 0cc7 bc3d cef1 1bbe 7061 123f
000001f0: ea07 a63c 238d 04be d0e3 5dbc 789b e3bc
00000200: 1ee2 b8bd 8ee0 0fbd afd4 07be def8 fdbc
00000210: 525d cfbd dcb1 d0bd cc18 8abd 84a3 48bd
00000220: 717f 6dbd e4eb 853d caef 09bd 6c40 e63e
00000230: 46fb da3a 7708 813c ca79 7fbc 5d8c 9ebd
00000240: af86 7b3d 5330 c53d 8f86 b83d f69a b63c
00000250: a56f 8f3d a4b9 693d a0a5 3e3d de2a 9a3d
00000260: 6987 5c3d c569 22bd 06d6 b33c c145 afbe
00000270: aea8 403d 521e 303d e881 68bc dcac a43d
00000280: b77c 81bc f152 22bd 6da9 e1bd 594e dcbd
00000290: 028e 97bd 4f13 79bb 4451 34be 0455 0cbe
000002a0: f2c1 f3bc 22a1 bb3d a9a2 ffbd 6ed3 0e3f
000002b0: f728 673d 4426 aebd 9b7c f93c b3d8 eabc
000002c0: 3740 f6bc fdd5 e53c a8ff 883c 60c9 abbd
000002d0: 0869 1abc ac88 d6bc 843d e1bd a273 c5bd
000002e0: f097 083d fe8f 7ebe bb04 a3bd 6f2a bb3e
000002f0: 3d22 c63c f008 dbbd 9919 763a 6b89 3c3c
00000300: 1d16 dc3d 7e8b d93d 1419 0b3e 8e40 e13c
00000310: 9f04 013e 2a59 0f3e c04f aa3d e72f 9b3d
00000320: a657 d73c 7ee9 15bd 9129 923c 155f c2be
00000330: 8e5b 783c 573b d33c 020a 003d 35de 583d
00000340: 56be 6cbd 2b3b f4bc 6a32 1abe 250b b8bd
00000350: cfb8 88bd 5cde bebd 79dc fbbd e2af c1bd
00000360: a64d 48bd 463e a93d 37c2 15be a2d3 043f
00000370: 0123 5f3c e71a 05be 082c 2e3b be43 5abd
00000380: f768 b63b faa3 503c b1e7 9d3d 94be 41bb
00000390: 3760 103d 6109 313d 85ce 153d 2d92 0c3d
000003a0: b023 723c 3471 b7bd aabe 78bc 22f1 cebe
000003b0: bc4f f5bc 49cf 7b3c adb8 e7bc 3cbe bc3b
000003c0: 8acd 69bd 45e9 76bd cd9d 00be 7c36 a8bc
000003d0: 4ee7 9abd 1369 c8bd edbd 59bd 638b ffbd
000003e0: 0cc2 5fbd 7ac4 973d dabb 59bd bcac e63e
000003f0: 2f6f 013c be24 21bd 500b 07bc 2910 a5bd
0.06976001 0.10056188 0.1321339 0.0018040013 0.08512436 0.10791146 0.098312974 0.065902114
0.11122813 -0.040257856 0.050716344 -0.37895194 -0.0049805837 -0.00053205737 0.01979973 0.048647184
0.076582514 0.045377754 0.117858484 0.03025636 0.07303147 0.0936593 0.06189135 0.07409941
0.06798459 -0.055484038 0.03707655 -0.4322338 -0.053862568 0.041715562 0.029500358 0.03661283
-0.10358526 -0.113582596 -0.13677818 -0.08581166 -0.10370553 -0.12918732 -0.11055617 -0.10564792
-0.06708728 0.08747951 -0.027157726 0.42505375 -0.042770017 -0.06817617 -0.06621278 -0.051935785
-0.0554198 -0.03695903 -0.1139302 -0.15712562 -0.050079558 -0.072551414 -0.12485374 -0.12995067
-0.039412 0.07873955 -0.1021655 0.5545102 0.0792972 -0.103422284 0.032705415 -0.057007223
-0.10417482 -0.077660695 -0.17825617 -0.06357633 -0.13889676 -0.13214454 -0.12872837 -0.069183856
-0.108098 0.042698115 -0.05729259 0.45834905 -0.00048611878 -0.043928932 -0.018613255 -0.11392023
0.06783513 0.08386756 0.14962372 0.01169541 0.09952597 0.10878362 0.10063644 0.05985006
0.047809403 -0.08496367 0.046785124 -0.45534688 -0.0032728864 0.0205153 0.013871416 0.0886053
0.07441252 0.12271009 0.15288147 0.103235826 0.11078147 0.09769646 0.15050435 0.17365873
0.08800992 -0.053514175 0.09696466 -0.54597205 0.042039268 0.13549876 0.03764285 0.058446016
-0.058320355 -0.0296225 -0.11289545 -0.14736243 -0.069542386 -0.059820715 -0.13623033 -0.18825792
-0.042904485 0.09217653 -0.1522896 0.5717993 0.020267446 -0.12944464 -0.013543084 -0.027784094
-0.090275034 -0.03512626 -0.13264726 -0.031002458 -0.10125221 -0.10190174 -0.06743011 -0.048984066
-0.057982866 0.06539133 -0.033675946 0.44971025 0.0016706965 0.015751107 -0.015593002 -0.07741616
0.06140774 0.09628358 0.0901004 0.022290688 0.070037164 0.057061806 0.04654467 0.075277075
0.053840075 -0.03965165 0.02195264 -0.34232906 0.047035865 0.042997666 -0.014191128 0.08040783
-0.015806539 -0.03962988 -0.110186435 -0.10757131 -0.07400133 -0.0038005894 -0.17609125 -0.13704306
-0.029755566 0.09161593 -0.12482197 0.55791366 0.05643555 -0.08503392 0.030454924 -0.028667783
-0.030059917 0.02805614 0.016723469 -0.083880186 -0.009424455 -0.026188217 -0.10998061 -0.09641196
0.033348024 -0.24859616 -0.07959887 0.36555812 0.024186248 -0.10695064 0.00093879696 0.011507372
0.10746405 0.10622309 0.13583785 0.027496602 0.12599419 0.13998857 0.08315992 0.07577496
0.026286911 -0.03659963 0.017842086 -0.37963167 0.015158547 0.025785131 0.031259544 0.05294629
-0.057798706 -0.02981337 -0.15058294 -0.08986501 -0.066758744 -0.093197554 -0.12297911 -0.09457375
-0.048902176 0.08263831 -0.14624868 0.51885426 0.013619185 -0.12998544 0.0026576538 -0.05328726
0.005566712 0.012734408 0.07710207 -0.0029563056 0.035248008 0.043221835 0.036573905 0.03431909
0.014779016 -0.08957139 -0.015182177 -0.40418345 -0.029945247 0.015369245 -0.028286302 0.0057599824
-0.057080783 -0.060281057 -0.12560196 -0.020533793 -0.07563649 -0.09785666 -0.053159643 -0.12477758
-0.054628417 0.07410522 -0.053157665 0.4505366 0.007900043 -0.03934168 -0.008242443 -0.08059723
